project 2/code/q1_model.pt (torch, 385506 bytes, 24 tensors)

conv1.weight f4 [16, 3, 3, 3]
000000 b1 e5 11 bc 06 38 09 be 1c 27 18 be 35 03 da be
       -0.00890486 -0.13400277 -0.14858669 -0.42580572
000010 88 f5 86 bd 06 9c 72 3e 8b 78 02 3e 23 01 28 3e
       -0.065898 0.2369233 0.12741296 0.16406684
000020 79 65 87 3e 7b f2 a1 3e 66 0d 94 3d be 46 02 3e
       0.26444605 0.3163031 0.07229118 0.12722299
000030 e2 f1 95 be 65 ee d1 3d c8 ae 71 3e 40 54 8d be
       -0.29286104 0.10250548 0.2360183 -0.2760334
000040 76 1b 37 be fc a6 03 be df 1f ee 3e bd 17 39 be
       -0.1788157 -0.12856668 0.4650869 -0.18075462
000050 47 28 01 bf fc 36 4c 3e d9 a4 2e 3e 9a 38 0e be
       -0.50452083 0.1994285 0.17055072 -0.1388878
000060 ed 1e 3c 3e f7 1e 43 bd b6 7c de bd 05 df 37 3e
       0.18371172 -0.047636952 -0.108636305 0.17956169
000070 57 38 cc 3e bb c0 a0 3e 24 94 84 bd 5e 45 99 be
       0.39886734 0.31397042 -0.06473568 -0.29935735
000080 f8 70 a5 3d f4 89 4f be a9 39 b0 be a8 69 02 3e
       0.08078188 -0.20267469 -0.3441899 0.12735617
000090 07 87 d5 3c e8 9f 0e 3e a2 da 5c 3e ac 7a 1a be
       0.026065363 0.13928187 0.21567777 -0.15085858
0000a0 e4 ef f6 be 5f af dc bc c1 90 47 3d 4f 2d b0 be
       -0.48229897 -0.026939092 0.048722032 -0.34409568
0000b0 a4 4c 83 bd 0c 01 7a 3d 32 0b 85 3e 4b c1 f2 3d
       -0.064111024 0.061036155 0.25985104 0.11853274
0000c0 c2 04 47 bd 8b a8 7c 3c 82 e5 0d 3e fb ae cc bc
       -0.04858852 0.015421043 0.13857082 -0.024985781
0000d0 5f 22 b0 be db 01 83 bc 29 a2 94 be ce 88 3d be
       -0.34401223 -0.015992096 -0.29029968 -0.18509218
0000e0 4c 98 01 be ba 82 81 3e 75 fd be bd 40 97 14 3c
       -0.12655753 0.2529505 -0.09325687 0.009069264
0000f0 14 e8 2b 3e fb 10 8c 3e 8a 60 1d 3e c7 8b 31 3e
       0.1678775 0.27356705 0.15368858 0.17338477
000100 29 38 a1 3e 9c 0e 68 be e9 a2 c6 3d 30 7e 20 be
       0.3148816 -0.22661823 0.096990414 -0.15673137
000110 4d 47 1f 3e e6 26 09 be 0d 78 58 bc 45 26 4c be
       0.15554543 -0.13393745 -0.013212216 -0.19936474
000120 9d c7 a6 3e 27 3f 05 3e b2 c5 c7 3e e3 a2 39 3d
       0.32574168 0.13012372 0.39018017 0.045321357
000130 f2 fd 3c bf 2d 5c dd bd f7 28 39 be 2a 20 8a bd
       -0.7382499 -0.10808597 -0.18082033 -0.06744416
000140 95 b2 ce 3d ab b8 c7 3d a4 b4 07 3f e2 21 d1 bd
       0.100926556 0.097520195 0.5301001 -0.10211541
000150 da 55 85 3d b9 26 81 3c 67 8b 05 be 1a f6 9c bd
       0.065105155 0.015765535 -0.13041459 -0.07664128
000160 ed 3f bc be e5 97 02 be 21 d5 93 bd 6b 05 c1 3e
       -0.36767522 -0.12753256 -0.072183855 0.37699446
000170 fb 2e cb be de 67 25 3e 0b 96 03 bc d2 4d bf bd
       -0.3968428 0.16152903 -0.0080313785 -0.09341015
000180 ad 47 46 be 78 79 fa bd ec 74 be 3b 11 45 a5 be
       -0.1936328 -0.122301996 0.005812278 -0.32279256
000190 6b 18 6b 3e e2 65 93 be 95 60 20 3e ef 43 23 3e
       0.22958533 -0.28788668 0.15661843 0.15943883
0001a0 3e 73 19 3e 12 96 8f 3e b4 3b c6 bc 2a 0e 38 3e
       0.14985368 0.28044182 -0.02419839 0.17974153
0001b0 ce 54 3d be 0f 7e 53 be 00 f3 38 3e 68 b4 a5 3d
       -0.18489382 -0.20653556 0.18061447 0.080910504
0001c0 ed 6c bf be 6b d7 d0 be 91 ff 9f 3e 3b 31 42 3e
       -0.3738779 -0.4078935 0.3124967 0.18964092
0001d0 d7 5a 6d 3d 06 34 a0 3d b3 66 43 3c b3 29 41 3e
       0.05794796 0.07822423 0.011926341 0.18863563
0001e0 27 03 1c bd bc 18 18 3e fd 1a 26 be 3f f8 74 be
       -0.038088944 0.14853185 -0.16221233 -0.23922823
0001f0 eb 41 6f be 05 29 00 bd 01 64 f0 bd 43 00 3e 3e
       -0.2336499 -0.03128912 -0.11737824 0.18554787
000200 40 17 79 be 7d ce 0f 3e 04 fe 14 3f 8d 68 9e 3c
       -0.24325275 0.14043613 0.582001 0.019336963
000210 fc 59 8c be 30 3d dd 3d a7 f7 f5 3d 0b 37 98 3e
       -0.27412403 0.10802686 0.120101266 0.29729494
000220 e8 9f 2b 3d 23 bd 85 3d f7 2b 9f 3c 58 25 d0 be
       0.041900545 0.065302156 0.019430144 -0.4065349
000230 8a 4d 6e be be 5f 7b 3d e0 18 bd 3c c2 76 4b be
       -0.23271766 0.061370604 0.02308315 -0.19869521
000240 db 97 51 3d 9f b1 b9 3d 63 f9 75 be 29 82 82 be
       0.05117021 0.09067082 -0.24020915 -0.2548993
000250 4f b9 97 bd c8 93 f4 bd ef 89 16 bd 16 98 17 3f
       -0.07408392 -0.119422495 -0.036752637 0.5921644
000260 df 75 0d 3e 14 8c 49 be 9c 0c 6b be 6a 6b 61 bd
       0.13814496 -0.19682342 -0.22954029 -0.05503408
000270 ac cd b9 be 7d b2 3f 3d 89 5b 1f 3e c4 d4 8b 3d
       -0.36289728 0.04680108 0.15562262 0.06827691
000280 11 bb 80 3e 31 4e bf 3b 88 a7 2a 3c 58 cc 24 bd
       0.2514272 0.0058381786 0.010415919 -0.04023394
000290 cd 4e 16 3d 16 bd ca bc 43 fe 34 3e c5 a3 68 3e
       0.036696244 -0.024748366 0.17675118 0.22718723
0002a0 28 cf 16 bf 17 5a 71 3e 59 07 7c 3d 7b 5c 13 3e
       -0.58909845 0.23569523 0.061530445 0.14390747
0002b0 3c c9 ee 3c 36 83 5b be ff d4 c1 3e 68 16 ee bc
       0.02914869 -0.21436772 0.37857816 -0.029063419
0002c0 c2 a8 9f be f1 60 e5 3d a1 f4 84 3e 22 73 cf be
       -0.3118344 0.11200131 0.25967887 -0.40517527
0002d0 b7 12 24 be 76 0c 9a bc 97 8f 2c 3e 9a 11 aa 3d
       -0.16022764 -0.01880477 0.1685165 0.083041385
0002e0 3d 83 b4 3d 9c 02 1a 3e 55 e9 ab be dd a5 cb 3d
       0.08814094 0.15040058 -0.33576456 0.09943745
0002f0 b0 c0 04 be b7 75 95 bd 34 68 81 3e 78 02 52 be
       -0.1296413 -0.07297843 0.25274813 -0.20508754
000300 15 e2 42 be 06 1e af 3e f5 c1 30 3e b5 a2 30 3d
       -0.19031556 0.34202594 0.17261489 0.04312392
000310 2d ca 4e bc 4a 7f ed bd a2 34 85 be 23 00 69 3e
       -0.012621445 -0.11596544 -0.26016718 0.22753958
000320 76 18 8d 3e af 6a ca be 7d f7 68 bd 06 0e bd 3e
       0.27557725 -0.39534518 -0.05687665 0.36924762
000330 01 5e 00 bd ea ee c5 bd 2a 87 76 bd fd e6 5f be
       -0.03133965 -0.0966471 -0.060187496 -0.21865459
000340 f9 e9 b7 3d 1c 1e 8e bd 65 c3 9f be b8 54 7c be
       0.089801736 -0.06939337 -0.31203762 -0.24641693
000350 67 af 7f 3e 57 89 bb 3e f0 a2 55 3e fb 2a 1d be
       0.24969254 0.3662822 0.20862937 -0.15348427
000360 83 76 d3 3c 2f e2 bf 3d e8 d6 2b 3b fb c9 a0 be
       0.025813347 0.09369313 0.0026220623 -0.314041
000370 25 42 7a be 26 fb bc bd dd 9f 0e be 7c dd c4 3d
       -0.24439295 -0.0922759 -0.1392817 0.09612557
000380 2c 60 c0 bd 1b d9 f0 bd bb df c6 3d b5 32 5f be
       -0.09393343 -0.117601596 0.09710642 -0.21796687
000390 3e a0 19 be 8b 68 4e bb 3e e2 bb bd b7 fe 34 3e
       -0.15002534 -0.0031495418 -0.09174012 0.17675291
0003a0 66 38 8d 3e 22 31 8b 3d 2d a4 cb 3e b4 ca fe 3e
       0.2758209 0.06796481 0.39773694 0.49764025
0003b0 12 e0 1b 3e 34 26 13 bb 18 fb 92 3e 9e 70 c9 3d
       0.15222195 -0.002245319 0.28707194 0.09835933
0003c0 46 27 c2 3b 73 16 45 3e fb 5b ac be ab e5 b1 3d
       0.005925092 0.19246845 -0.33663926 0.08686384
0003d0 7d 46 0c be f5 3c 75 3d 23 03 ab 3d 8b ab 68 be
       -0.13698764 0.059872586 0.08350208 -0.22721688
0003e0 e6 d7 7e bd 9a d2 d4 3e 3d 99 7e 3c 84 e9 4f 3e
       -0.062217616 0.41566926 0.015539465 0.20303923
0003f0 7e a1 8a 3d b4 d7 92 be 34 37 17 3e c4 6d 19 3e
       0.067690834 -0.28680193 0.14767152 0.14983279

bn1.weight f4 [16]
000000 4f c4 45 3f 65 63 52 3f ad 34 48 3f 4e 8b 34 3f
       0.7725267 0.82182914 0.78205377 0.7052506
000010 47 43 24 3f ba d2 33 3f fe 20 6d 3f 11 e4 7a 3f
       0.6416516 0.7024342 0.9262847 0.9800425
000020 c5 90 1c 3f 40 20 4b 3f d3 de 3f 3f 46 51 f3 3e
       0.611584 0.79346085 0.7494938 0.47522944
000030 71 31 64 3f 90 89 5d 3f ea 00 2c 3f 5d e0 47 3f
       0.8913794 0.8653803 0.67188895 0.78076726

bn1.bias f4 [16]
000000 36 c6 75 3f 04 15 5b 3d 09 f3 5a 3e 44 ee 19 3e
       0.9600557 0.05348684 0.21381773 0.15032297
000010 7f 72 4b b9 0c c7 2e 3e 21 c9 42 3f 03 28 44 3f
       -0.00019402242 0.17068118 0.7608815 0.76623553
000020 88 cd 5a be 92 dd 13 3f a2 c0 3c 3b ba 70 27 be
       -0.21367466 0.57759964 0.0028801342 -0.16351596
000030 b6 55 6c 3f 6f a2 f2 3c 8d ee 62 3d 07 ef ed 3c
       0.92318285 0.02961847 0.05540328 0.029044641

bn1.running_mean f4 [16]
000000 16 90 d7 b9 9b ef c3 3a ab 12 d2 b9 0c bd 3d bb
       -0.00041115348 0.0014948727 -0.0004006823 -0.0028951792
000010 9e ec 5f ba 6f 22 cc 3b 71 b8 ac 38 57 6e 53 ba
       -0.00085420336 0.0062296907 8.235954e-05 -0.0008065453
000020 f0 e9 2b bc f1 c3 77 bb 8f cf a2 3a 1a 6c 0a 3c
       -0.010492787 -0.0037806 0.0012421476 0.008448625
000030 5f 88 13 b9 c8 26 0a 3b 6e cb 85 3b eb cf 3a 3b
       -0.00014069815 0.0021080244 0.0040830886 0.0028505276

bn1.running_var f4 [16]
000000 8a aa 07 3e e6 7c b0 3f 03 a2 17 3e e5 9a af 3e
       0.13248649 1.3788116 0.14807896 0.34297863
000010 f1 8d af 3d c6 28 ed 3e dd 8d 40 3e b5 d6 f6 3e
       0.08571995 0.4632017 0.18804117 0.48210683
000020 b8 c5 15 3f a7 96 70 3f 7f 51 d3 3e a7 b2 10 3f
       0.5850482 0.9397988 0.41273114 0.565226
000030 de 99 13 3e b8 f3 ad 3f 04 c1 64 3e 15 1a d5 3e
       0.14414164 1.3590002 0.22339255 0.41621462

conv2.weight f4 [32, 16, 3, 3]
000000 18 45 82 bd 26 c4 75 bd 7d 3c 3e bd e0 47 0c 3e
       -0.06360835 -0.060001515 -0.046444405 0.13699293
000010 10 01 32 3d ca 56 c1 bd de db 38 be db 82 6d 3e
       0.043458045 -0.09440382 -0.18052623 0.23194449
000020 a9 30 ff bc 3e 03 58 bd 4b f4 2c bd bb 53 87 be
       -0.031151133 -0.052737467 -0.042225163 -0.2643107
000030 0d 32 30 3e 0e 79 aa 3c 5f 53 bc 3d ef 8b 20 3e
       0.17206593 0.020809676 0.09195589 0.1567838
000040 4b 04 06 bd 9f e6 34 be e0 74 ff bd 2b a4 f5 3d
       -0.032718938 -0.176661 -0.12473464 0.11994203
000050 89 02 1f 3d 31 6b 96 be 52 05 02 be 36 e6 df bc
       0.038820777 -0.29378656 -0.12697342 -0.027331453
000060 7d a6 92 3d 6f d6 cd 3d 18 05 57 3c d1 9c 43 3c
       0.07160661 0.100506656 0.013123773 0.011939243
000070 bb 6e 27 3c f5 c5 74 bd de e5 2c 3d c8 cf c0 bd
       0.010219271 -0.0597591 0.042211406 -0.09414631
000080 6f c6 5b bd 68 29 46 3e 03 b6 36 bb 8f 4c 49 bd
       -0.053656038 0.19351733 -0.0027879484 -0.049145278
000090 00 cd 08 be 11 ac 9c bc 2d c3 80 bd 5c ac da bd
       -0.13359451 -0.019125016 -0.06287227 -0.10677406
0000a0 bb 2c b7 bd fa c9 2e be 97 ae bd bd 3b a6 c3 3d
       -0.089440785 -0.17069235 -0.09261816 0.0955319
0000b0 ff a4 86 bc 8a b8 a7 bd ef b3 f1 bc ae 85 64 3d
       -0.016436098 -0.08189495 -0.029504744 0.05579155
0000c0 b8 97 26 3d ed 20 93 bd ed a8 56 bd f2 b7 70 3e
       0.040672034 -0.071840145 -0.052407194 0.2350767
0000d0 54 59 40 3d 15 dc 24 bd 61 0c 2a 3e 89 85 63 3e
       0.04696019 -0.04024895 0.16606285 0.22218908
0000e0 37 ca 2e be ae 6a 69 3e df 54 4f 3e cc 1a 3b be
       -0.17069326 0.22794601 0.2024722 -0.18271941
0000f0 a5 ba 8c be a2 7f a3 3d 8b 62 9e bd fe 83 f4 bd
       -0.27486148 0.079833284 -0.07733639 -0.11939238
000100 16 0e b8 3d 2c 04 10 be 70 d7 38 3e 8a 98 9c be
       0.08987062 -0.14064091 0.18050933 -0.30585128
000110 28 e3 78 3d 00 31 eb 3d 8c 2d b5 3d 56 c5 3b be
       0.060763508 0.114839554 0.08846578 -0.18336996
000120 99 e2 28 bc 60 69 2d bd f2 f3 ce 3c a6 d2 f2 3c
       -0.010307931 -0.04233682 0.025262807 0.02964146
000130 92 23 49 bd c9 26 97 bc 98 75 76 3d 42 9f 55 3d
       -0.049106188 -0.018451111 0.06017074 0.052153833
000140 aa 3d 84 3a 64 02 56 be f1 04 ea 3e c8 90 33 3e
       0.0010089178 -0.2089935 0.45706895 0.17535698
000150 cd c5 09 bf 72 7c 1b be 1b 59 09 bd 39 9d 53 be
       -0.53817445 -0.15184191 -0.033532243 -0.20665444
000160 cb 3a 12 be e2 2e 9a bd ee 68 a0 be d9 33 40 be
       -0.1428024 -0.075284734 -0.31330055 -0.18769778
000170 1b c6 4e 3c aa db eb bd b2 52 1d be 65 df a0 bd
       0.012620474 -0.11516507 -0.15363577 -0.07855109
000180 4a 26 b5 bc a1 18 50 3e c7 42 25 be 49 f3 b2 bd
       -0.022112984 0.20321895 -0.16138755 -0.08737809
000190 71 c9 f6 bd 73 da 39 be 6e e8 13 bd 81 c3 99 bd
       -0.12050141 -0.18149738 -0.036110334 -0.075079925
0001a0 19 33 4a be 0c 3e 9b bd 81 68 b1 bb 35 92 e0 bc
       -0.19746055 -0.07580194 -0.005414069 -0.027413467
0001b0 d2 bb 12 be e8 1b 0d 3e c2 d4 ac bd 4d 86 39 3d
       -0.1432946 0.13780177 -0.08439018 0.045294095
0001c0 c8 be 42 bd c1 2a 2f 3e 2d 0c 55 3e 15 15 1b be
       -0.047545224 0.17106153 0.20805426 -0.15144761
0001d0 75 b1 b0 3c c9 39 b6 3d 8d 21 df bd ed 0f d8 bd
       0.021568993 0.088977404 -0.10895071 -0.105499126
0001e0 a6 6a 6e bc 8e 55 50 be bf d7 84 be 6c a9 08 be
       -0.014551794 -0.20345137 -0.2594585 -0.1334588
0001f0 aa 57 19 be 1a c2 41 3d 65 d2 4e be 05 d7 26 bd
       -0.14974847 0.04730425 -0.20197447 -0.040732402
000200 73 15 57 3e bb c1 b1 be 05 45 45 bd 7a 4f 41 3e
       0.21004276 -0.34718117 -0.048161525 0.18877974
000210 0c 83 e2 bd d7 ee 4d bd 24 01 0b 3e b9 be b7 be
       -0.110601515 -0.050276604 0.13574654 -0.35887697
000220 2e 49 50 be 1a 9c 3b be 4f 81 45 3e 52 53 42 be
       -0.20340416 -0.18321267 0.19287609 -0.18977097
000230 87 2f 33 be 84 24 c3 3e 8d 63 e6 bd 76 98 c8 be
       -0.17498599 0.38113797 -0.112494566 -0.39178818
000240 82 29 bc 3d 46 67 e6 bb 64 c9 8b 3c 3f 36 17 be
       0.091876045 -0.007031354 0.017063804 -0.14766787
000250 2a 5e e7 3b 97 ea 4e 3e 8d a3 c7 3d df eb 80 be
       0.007060786 0.20206676 0.09747992 -0.25179955
000260 69 0e df be 15 4f b6 bd 3b 5e 8a bb df f6 02 3e
       -0.43565682 -0.089018025 -0.004222659 0.12789486
000270 2e 59 02 be c2 f8 02 3d 30 97 bb bd fc a0 b2 bd
       -0.12729332 0.031975515 -0.09159696 -0.087221116
000280 97 c0 4e bd 45 86 b0 3c 56 56 aa 3d 09 24 82 be
       -0.050476637 0.0215484 0.083172485 -0.25418118
000290 16 9e 1a 3e 44 52 5c bc 92 8c 16 3e 69 97 d0 be
       0.15099367 -0.013447348 0.14702061 -0.40740517
0002a0 ad e0 85 3d ab 76 69 be 51 e5 d8 3e ab a3 06 3d
       0.06536994 -0.22799174 0.42362455 0.03287093
0002b0 9c 9c 81 bd 5c 71 8e bd 7e 20 57 bd 6f 4c be bd
       -0.06328699 -0.06955215 -0.05252122 -0.09291922
0002c0 f9 6a af bd a9 ce 5d 3e fa 3c 9e be 3f d3 b0 3e
       -0.08565325 0.21660866 -0.30905896 0.34536168
0002d0 65 74 00 3c 6c 87 00 be 04 ec c5 bd c7 f7 87 be
       0.007840251 -0.1255166 -0.09664157 -0.26556227
0002e0 89 f1 6e be f1 7b 47 3e 10 fc 5e 3e ae 1f 0d 3c
       -0.23334326 0.19480874 0.21775842 0.00861351
0002f0 4a 9b 93 3c 67 a1 3c 3c e7 42 b8 3c b9 bc 88 3d
       0.018018384 0.011513091 0.022492839 0.06676621
000300 c0 6b 17 bd 11 ff 59 bd 38 23 bd bd 31 8d 4f 3e
       -0.036967993 -0.053221766 -0.09235233 0.20268704
000310 89 83 f0 3d 96 f5 72 be eb 66 7f 3e f4 66 aa be
       0.11743838 -0.23726496 0.24941604 -0.33281672
000320 d9 e0 9c 3e 05 df 8a bd 93 c7 a6 3e 0f e6 27 bf
       0.30640295 -0.06780819 0.32574138 -0.65585417
000330 04 6e d3 3c 8f 1f 04 be f8 42 61 3d 8c d5 ef 3d
       0.025809295 -0.12902664 0.054995507 0.11710653
000340 e8 28 15 3d ba 04 d4 bd 71 66 8f bd cd 22 14 be
       0.036415964 -0.10352464 -0.07001961 -0.144664
000350 23 16 23 3e ad 14 84 3e c3 74 cf be dc 28 36 be
       0.15926413 0.25797024 -0.4051877 -0.17789024
000360 94 00 a5 bc c3 db 6b be 2c 2d dc 3c 2a 03 84 bd
       -0.020141877 -0.23033051 0.026877008 -0.06445916
000370 c7 d5 64 3c 68 64 66 bc a3 9d 1d 3e 9c 3c 0c 3d
       0.013966984 -0.014062025 0.15392165 0.03423749
000380 68 42 6d 3d b3 be 8e bd ed 4d 33 3e 53 e1 09 be
       0.057924658 -0.06969967 0.17510195 -0.1346486
000390 cb b8 27 3e 70 4d d0 3d 55 08 ec bd 71 2a 85 3d
       0.16379087 0.1017102 -0.11525027 0.06502236
0003a0 9b 79 2a bd 58 fd bb bd c7 75 4c be ac 41 76 be
       -0.04161988 -0.09179181 -0.19966803 -0.2404849
0003b0 b4 0a ee 3d 81 88 a5 bd ea 37 36 be 5d 97 6e 3d
       0.11623135 -0.08082677 -0.17794767 0.05824982
0003c0 13 d9 94 bd 02 77 ba 3c 8b d8 cc bd 49 2f e9 bc
       -0.07267966 0.022761825 -0.1000224 -0.02846493
0003d0 f3 1d 26 bd cf c3 d6 bd 68 d0 b7 bd 88 ce b7 bd
       -0.040555906 -0.10486566 -0.08975297 -0.089749396
0003e0 eb 41 ef bc c4 64 33 be 62 c2 c8 bd 1d c7 ae 3d
       -0.029206237 -0.17518908 -0.098027006 0.085340716
0003f0 b1 d0 78 3d 0a 0f 73 be 22 25 a4 3c 3a b4 b5 bd
       0.0607459 -0.23736206 0.020037238 -0.08872266

bn2.weight f4 [32]
000000 23 fc 6a 3f 49 e9 5a 3f 6b 55 86 3f 4f b1 4e 3f
       0.9179098 0.85512215 1.0494817 0.807393
000010 21 3e 7f 3f 25 40 74 3f 4f 79 60 3f 16 ac 82 3f
       0.99704176 0.95410377 0.876851 1.0208766
000020 6d 35 64 3f 4a 78 58 3f 3e e2 36 3f 96 c4 46 3f
       0.8914402 0.84558547 0.7143897 0.77643716
000030 b6 bd 7e 3f 34 22 09 3f fe a9 69 3f ad 55 87 3f
       0.99508226 0.53567815 0.9127501 1.0573021
000040 f8 d0 21 3f d8 f8 22 3f b7 1e 88 3f 51 7e 55 3f
       0.63209486 0.63660955 1.0634373 0.8339587
000050 10 e5 13 3f 56 c1 89 3f 42 c4 13 3f 8e d5 0b 3f
       0.57771397 1.0762126 0.5772134 0.54622734
000060 88 46 72 3f b2 55 60 3f 44 d9 40 3f 1c 3f 2d 3f
       0.9463887 0.8763076 0.7533152 0.6767442
000070 81 b9 5e 3f 0a 35 67 3f 54 08 74 3f bf f7 91 3f
       0.87001806 0.90315306 0.9532521 1.1403731

bn2.bias f4 [32]
000000 91 fd d6 bd 8d 16 b3 bb 94 25 97 3d f9 a6 93 3e
       -0.10497583 -0.0054653347 0.07380214 0.28838328
000010 e5 08 a6 3d 57 07 83 be 99 a7 ab bc da a3 5a bd
       0.08107165 -0.25591537 -0.02095394 -0.053378917
000020 61 9c 7e bd 21 07 59 be d9 fe d4 bd 23 4b 2f 3d
       -0.062160853 -0.21194126 -0.10400171 0.042796265
000030 7f dd 54 be 64 6a a1 be 4c 63 3c 3d 3a a3 99 3c
       -0.20787619 -0.31526482 0.045993134 0.01875459
000040 bd f5 94 bd 57 b0 d8 bd 0e 0c 0b be 73 7c 0d 3c
       -0.07273433 -0.10580509 -0.13578817 0.008635628
000050 3d 76 31 be b5 f8 91 be 5d 93 8a be ed 74 95 be
       -0.1733026 -0.2851006 -0.27065554 -0.2919077
000060 34 6b 63 be 6f b6 57 be 99 9c 4e be fc 79 40 3d
       -0.22208863 -0.21065687 -0.20176925 0.046991333
000070 e2 2f 1f bd c6 a0 92 be c5 79 06 be c1 af 8d be
       -0.038864024 -0.28638285 -0.13132389 -0.27673152

bn2.running_mean f4 [32]
000000 b0 e7 a2 bf 1a 9c f5 bf ac 93 06 c0 a1 48 86 bf
       -1.2726955 -1.9188263 -2.1027632 -1.0490915
000010 a6 3f fa bf 0d 48 4c c0 cb a0 bd bf 74 91 29 c0
       -1.9550674 -3.1918976 -1.4814695 -2.6495028
000020 16 02 1d c0 6d fd 6f 3e 1f 87 21 c0 f8 03 f5 bf
       -2.4532523 0.23436518 -2.5238721 -1.9141836
000030 ca fe c5 bf 15 7a 0a 40 f5 e1 e2 bf a3 a7 3d c0
       -1.546838 2.1637013 -1.7725207 -2.9633567
000040 fd c7 a7 3f 1e bb e1 bf f0 3d 0e c0 37 55 d1 bf
       1.3107907 -1.7635229 -2.2225304 -1.635413
000050 ec df 75 bf a8 32 90 bf 8b 59 3d bd 62 45 07 3f
       -0.960448 -1.1265459 -0.046227973 0.52840245
000060 68 d0 67 be d4 75 b9 bf 5f 81 c0 bf ce 05 ec be
       -0.22638094 -1.4489083 -1.5039481 -0.4609818
000070 05 f0 b0 bf bd 52 a9 bf e8 d3 46 c0 03 84 00 c0
       -1.3823248 -1.3228375 -3.1066837 -2.0080574

bn2.running_var f4 [32]
000000 22 87 35 40 dd f2 1e 40 2f b5 e7 40 43 c3 1d 40
       2.8363729 2.4835732 7.240867 2.4650428
000010 c0 a4 a1 40 64 d6 2b 40 fe 35 fe 3f 38 9b 83 40
       5.051361 2.6849604 1.9860227 4.1126976
000020 98 57 84 40 36 a7 61 40 04 3a d4 3f 7f c4 6a 40
       4.1356926 3.5258307 1.6580205 3.6682432
000030 0e 06 17 40 4e d3 c1 3f b6 15 e3 3f 00 bb 92 40
       2.3597445 1.514261 1.7741001 4.585327
000040 51 44 41 40 24 46 ad 3f dd 1a 28 40 88 42 3e 40
       3.0197947 1.353703 2.6266396 2.9728107
000050 fb 68 ac 3f ee 43 0c 40 87 49 4f 3f 8b fb 92 3f
       1.3469537 2.191646 0.8097157 1.1483015
000060 40 ff b1 3f 82 b8 da 3f 41 93 db 3f 5c e7 1c 40
       1.3906021 1.7087557 1.7154313 2.451621
000070 aa b1 af 3f 90 5a d5 3f cf fb 2e 40 ce 7c 44 40
       1.3726094 1.6668262 2.7341192 3.0701175

conv3.weight f4 [48, 32, 3, 3]
000000 af 78 05 3c 84 9a 5a bd e5 b5 e1 3c 13 40 08 bc
       0.008146449 -0.053370014 0.027552554 -0.008316058
000010 f7 89 03 bd 38 8a fe 3c 3d 91 9c bd 43 f9 9b bd
       -0.032113995 0.031071767 -0.076448895 -0.07615902
000020 51 69 ee bc de 01 5f 3c 3c ed a7 3d b9 00 af 3d
       -0.029102953 0.013611285 0.08199546 0.0854506
000030 de 32 d2 bc 06 3f de bd 9c dc 13 be f0 e7 f5 3c
       -0.025659021 -0.108518645 -0.14439625 0.030017823
000040 94 41 8a 3d ed 56 b8 3d 4a 80 76 3d 6a ff 41 bd
       0.06750789 0.09000955 0.06018094 -0.047362722
000050 d6 9c b0 bd 6a f7 0e 3e f3 49 3a 3b 8c 6f e1 bb
       -0.08623664 0.13961568 0.0028425425 -0.0068797525
000060 cf a9 60 3e 71 4f 19 3d 67 1f fb 3d c5 28 bd 3d
       0.21939777 0.037429277 0.12261849 0.09236292
000070 66 a6 fd 3c e6 43 1e 3e 67 d4 a9 bd d0 f0 b6 bd
       0.030963134 0.15455589 -0.08292466 -0.0893265
000080 94 99 a7 bb 08 e0 f4 bd da b3 2d be 3d 49 60 3c
       -0.0051147435 -0.11956793 -0.16963139 0.013689336
000090 d8 cf 21 be b7 af db 3d 43 a5 3e 3d d6 7a 7c bd
       -0.15801942 0.10726874 0.046544325 -0.061640583
0000a0 2a 15 05 3e 13 0c 09 bd 7d 81 94 3d 23 68 76 3c
       0.12996355 -0.03345878 0.072512604 0.015039477
0000b0 4a 43 a7 bc 8e a8 91 3d 5d b4 ee bd e7 c1 11 3d
       -0.020417828 0.071122274 -0.11655495 0.03558531
0000c0 4e 68 f9 3b 4a 7a 24 be e9 e4 93 3d a3 f4 2d 3d
       0.007611311 -0.16062275 0.072213955 0.042469632
0000d0 9a b7 d3 bc 31 dd a8 bc d0 7f a8 3d b6 ec 66 3d
       -0.025844384 -0.020613285 0.08227503 0.05637809
0000e0 a8 7d a8 bd fb 27 bd bb a0 a8 10 bd 57 35 b5 bd
       -0.08227092 -0.0057725883 -0.035317063 -0.088480644
0000f0 18 cd df bd bf 6c db bd 34 40 30 be a8 6d 21 3d
       -0.109277904 -0.10714101 -0.17211992 0.039411217
000100 33 c7 3a bd 93 96 4e 3b 7f e8 28 be 73 18 0d be
       -0.045600127 0.0031522855 -0.1649494 -0.13778858
000110 82 65 5d bc 5a 95 c1 3d b6 8c ec 3d da 45 63 3e
       -0.013512971 0.09452315 0.11550276 0.22194615
000120 d8 99 26 3d 22 99 49 bd 59 e3 a3 bc 1e cb 86 3e
       0.04067406 -0.049218304 -0.020005869 0.2632684
000130 7b ce d4 3c 9e 08 b3 3d 7f db ba 3d f3 09 fb bd
       0.025977364 0.08741878 0.09123897 -0.12257757
000140 b2 35 da bd ab 67 6e be e1 e3 72 bc bb 00 11 3e
       -0.10654773 -0.23281734 -0.014824838 0.14160435
000150 72 b3 93 be b7 b6 e7 bd 00 a4 3d 3d 75 40 b4 be
       -0.28847843 -0.11314147 0.04629898 -0.35205427
000160 98 1f 62 be 00 d8 29 3d 41 8b a9 bd 07 74 a3 3c
       -0.22082365 0.04146576 -0.08278514 0.019952787
000170 5f 24 1f 3e c8 5e e3 bc 0d 13 34 3d 2e cb 5d 3e
       0.15541218 -0.027755156 0.04396348 0.21659538
000180 1a b5 d6 3d d4 ed 98 3d 40 cb c0 3d 25 e0 0a 3e
       0.10483761 0.07467237 0.09413767 0.13562067
000190 ae 60 e4 bc 97 8c a3 bc 92 7f 62 3d 13 fb 0f 3d
       -0.027878132 -0.0199645 0.05529744 0.035151552
0001a0 63 b5 8e 3d ef 40 a1 bd 68 90 9d bd 1b 4e 29 3d
       0.069681905 -0.07873713 -0.07693559 0.041334253
0001b0 69 d0 ca bc 65 7a f7 bc 1d 61 1b 3e 73 74 31 be
       -0.02475758 -0.03020973 0.15173765 -0.17329578
0001c0 33 87 13 be 9d ac 01 3d 41 a2 00 3d 8e c9 ce 3d
       -0.14407043 0.031658757 0.031404737 0.10097037
0001d0 1c 4b 36 3e b0 01 9e 3c 36 42 fe bc a1 28 f2 bd
       0.1780209 0.019287914 -0.031037431 -0.118241556
0001e0 1f 89 ad 3d 1e 85 ef 3b 50 ac d7 bd 24 78 e1 bd
       0.084734194 0.00730957 -0.10530913 -0.11009243
0001f0 9c 83 84 bd 52 2c 55 be e3 dc 91 3e 55 a0 f1 3d
       -0.06470415 -0.20817688 0.28488836 0.11798159
000200 4e 74 3e 3e 72 7e ec 3d 3b 7a 47 3d 99 a2 48 3d
       0.18599054 0.11547555 0.048700552 0.04898319
000210 99 ae 44 3e eb 96 1c 3e ac 69 75 bd 6a fa 3b be
       0.19207229 0.15291946 -0.05991523 -0.18357244
000220 d4 54 9e bd 17 a4 73 bd b0 a3 09 be 36 2e 1a bc
       -0.077310234 -0.05948266 -0.13441348 -0.009410432
000230 01 a6 1e be 0d 3e db 3d 62 4a 57 3e 38 cc de bc
       -0.15493013 0.107051946 0.21024469 -0.027196988
000240 3f 40 3c 3e c1 6b 1a 3e 90 2f aa 3d a2 98 3e 3d
       0.18383883 0.15080167 0.08309853 0.04653228
000250 42 f6 bf 3d 44 d0 83 3d 8c af e7 bc 4d 60 8a bc
       0.09373142 0.06436208 -0.02828195 -0.016891623
000260 a7 18 49 3d 52 4e d1 3d a2 49 77 3d 3e 83 0a 3e
       0.049095776 0.102200165 0.060372956 0.13526627
000270 3f 2a 88 bc 18 a8 4c bd 36 21 68 bc ca b3 3f be
       -0.016621707 -0.049964994 -0.014168074 -0.18720928
000280 b0 05 58 be ac 82 4f be b2 09 4e 3d 53 87 71 3c
       -0.2109592 -0.20264691 0.050302215 0.014741736
000290 c7 65 01 be 67 01 27 be cb 71 0b be b5 8a 24 bd
       -0.12636481 -0.16309129 -0.13617627 -0.040171344
0002a0 39 27 16 3e 6b b4 c3 3d e8 6d df 3d 4e f0 75 ba
       0.146634 0.09555896 0.10909635 -0.00093818165
0002b0 4a c5 14 3c 24 75 03 bc 24 80 a6 3d 5d 21 01 3e
       0.0090802405 -0.008023534 0.0812991 0.12610383
0002c0 f9 ef a3 3d b8 cc 25 3e 49 29 e8 3d 3e 41 06 3e
       0.080047555 0.16191375 0.113359995 0.13110825
0002d0 2b b5 b9 3b 97 53 57 bd 55 d9 d4 bc 4d 61 b9 3d
       0.005667349 -0.05256995 -0.025982538 0.09051762
0002e0 2a 0d c1 bd 98 61 b8 bd 7b f8 c7 3d d0 e5 e2 bc
       -0.09426339 -0.090029895 0.09764191 -0.027697474
0002f0 dc f6 12 be fa f2 9c bc 4e 68 53 3d 51 7e fa 3d
       -0.14351982 -0.019158829 0.051613145 0.12231124
000300 1a 4d 35 be c5 b1 df bd 9d b4 fd 3d c3 6a cb bd
       -0.17705193 -0.10922579 0.12387965 -0.099324726
000310 81 4f fd 3c a9 aa 97 3e 7e 73 22 3d d5 b5 35 bb
       0.0309217 0.2962239 0.039660923 -0.0027726789
000320 4f 3e 66 bd 1f dd df bd f5 12 e3 bd 31 51 31 be
       -0.056211766 -0.109308474 -0.110876 -0.17316128
000330 4a fe ab bd 5e 04 a3 bd 9e fa 89 be fc 07 12 bc
       -0.08398111 -0.07959817 -0.26949018 -0.008913036
000340 40 c5 b8 bd a4 ac 44 bc ff c0 96 ba f2 d4 7d bd
       -0.090219975 -0.012004051 -0.0011501609 -0.06197066
000350 7c fb 5d 3d f2 05 d9 3d 08 76 2e 3d a7 e9 c4 3d
       0.054194912 0.10596837 0.042593032 0.09614878
000360 b2 68 9f be 72 2a 2c be a1 2b 3c be d5 5b 10 be
       -0.31134564 -0.16813067 -0.18376018 -0.14097531
000370 78 46 80 bc b9 21 25 3c 8f da 50 3d 8a 97 c7 3d
       -0.015658602 0.010078841 0.050989684 0.09745701
000380 d8 92 4a 3e 4e b4 85 bd 5e 05 84 bd 51 1f 6a be
       0.19782579 -0.06528531 -0.06446336 -0.22863509
000390 a5 ce a5 3c 3a 75 09 bd 3d 51 b6 bd 16 3d 77 3d
       0.020240137 -0.03355906 -0.08902214 0.06036099
0003a0 fb 6d d6 3c d1 0a 13 3c 1b 91 de bd 97 17 33 3c
       0.02617549 0.008974747 -0.108675204 0.010930917
0003b0 7c 19 92 bc 38 38 34 be e0 74 9c bd f7 90 4c be
       -0.017834418 -0.17599571 -0.0763948 -0.19977175
0003c0 ef df 7a be 0d fd d7 bd 8b 52 e2 bd 77 a7 0b 3e
       -0.24499486 -0.105463125 -0.110509 0.13638102
0003d0 93 ce cf 3d fb e0 8a bc 09 c8 bf bd cd 79 9b bd
       0.10146823 -0.016952982 -0.093643256 -0.07591591
0003e0 0b da c3 bd fb f7 46 3d 73 09 30 3d 08 05 ee 3b
       -0.09563073 0.048576336 0.04297776 0.0072637834
0003f0 3c d5 6b 3d 03 89 f0 bd 07 6d 3e 3b e8 d8 d1 3d
       0.057576403 -0.11744883 0.0029056685 0.1024645

bn3.weight f4 [48]
000000 bb 39 54 3f 09 4d 63 3f 66 bc 1a 3f d6 bb 48 3f
       0.8290059 0.8878942 0.60443723 0.78411615
000010 02 d1 1f 3f 3e 23 70 3f 70 d3 59 3f e7 d7 61 3f
       0.62428296 0.93803775 0.85088253 0.88220066
000020 ba 1b 25 3f 71 47 4d 3f 6a a0 63 3f e0 c3 70 3f
       0.6449543 0.80187136 0.8891665 0.9404888
000030 1a d8 41 3f f3 8f 2e 3f c4 86 53 3f fa 1a 86 3f
       0.7572037 0.681884 0.8262751 1.0476983
000040 5e 18 10 3f fb a6 5e 3f 4b 37 71 3f 8e 55 4f 3f
       0.5628718 0.8697354 0.94224995 0.8098992
000050 2a 1d 30 3f 2b fb 4e 3f 8e c6 3f 3f 5a 9f 87 3f
       0.687945 0.80852 0.74912345 1.0595505
000060 b4 03 88 3f e3 cb 62 3f 6c be 1e 3f 89 9c 18 3f
       1.062613 0.88592356 0.6200931 0.59613854
000070 ea 97 3d 3f 89 83 0f 3f 52 ce 1b 3f 77 ae 6b 3f
       0.7405993 0.5606008 0.60861695 0.9206309
000080 8b f6 14 3f 4e 57 02 3f 26 c3 59 3f ac 10 07 3f
       0.58188695 0.50914466 0.850634 0.52759814
000090 cb 04 33 3f 50 70 4a 3f b8 b2 4e 3f d5 07 22 3f
       0.6992919 0.79077625 0.80741453 0.632932
0000a0 7d e2 08 3f 6a 4a 28 3f 24 95 18 3f 63 6a 28 3f
       0.53470594 0.65738547 0.5960257 0.65787333
0000b0 7e 81 86 3f e9 5a 2d 3f 58 10 7b 3f 58 59 13 3f
       1.0508268 0.6771684 0.98071814 0.575582

bn3.bias f4 [48]
000000 e9 5f aa be 03 d2 32 bb b7 09 ba be 69 06 12 bf
       -0.332763 -0.0027285821 -0.36335537 -0.5704103
000010 6c d6 d1 be 50 0c 9d be 13 1e b7 be b9 ab 8b be
       -0.40983903 -0.30673456 -0.35765132 -0.2727945
000020 31 2f 0b bf b3 b1 39 be b9 0e 18 be 27 07 5b be
       -0.54368883 -0.18134193 -0.14849366 -0.21389447
000030 0b f7 5d bd 85 31 9a be b9 b4 1b bf 84 2e c4 bd
       -0.054190677 -0.30115905 -0.60822636 -0.09579185
000040 cf 7f c3 be d3 88 82 be 94 f4 5a be ec e7 cd be
       -0.38183448 -0.25495014 -0.21382362 -0.40216005
000050 5e 13 35 be ae 23 c5 be 92 2e 45 bf a2 a3 c7 be
       -0.17683169 -0.38503784 -0.77024186 -0.3899203
000060 de 69 a0 be 94 de 71 be 39 48 37 bf 17 34 f8 be
       -0.3133077 -0.23620063 -0.7159458 -0.4847724
000070 1e 15 07 bf fd e0 f4 be 79 e0 17 bf ab 14 b9 be
       -0.527666 -0.47827902 -0.59326893 -0.3614858
000080 e6 e8 00 bf 92 f9 fe be 09 29 a5 be 26 66 b3 be
       -0.50355375 -0.49799782 -0.3225787 -0.3503887
000090 56 23 23 bf 12 87 77 be 7b 13 0a bf 1b 14 c1 be
       -0.63725793 -0.24172619 -0.53935975 -0.37710652
0000a0 ef 6a ef be 74 cd e2 be 1d a9 d3 be b4 6e f8 be
       -0.4676127 -0.44297373 -0.4133996 -0.4852196
0000b0 d5 fb 40 be 14 8b 71 be bd 79 99 be 47 f6 f7 be
       -0.18846066 -0.2358821 -0.2997569 -0.48430082

bn3.running_mean f4 [48]
000000 a1 cf 89 be 69 c1 0e c0 27 50 bc 3f ee 68 29 bf
       -0.2691622 -2.2305548 1.471196 -0.66175735
000010 3e 98 8a 3c c8 a9 06 bf f2 3d 81 bf 6d ab 0f c0
       0.016918298 -0.52602816 -1.0097029 -2.244838
000020 ff 7e d5 be f2 fd 96 bf 37 0d 26 c0 4a e8 59 3f
       -0.41698453 -1.1796248 -2.5945566 0.8512007
000030 59 81 ac bf c7 14 89 3e ba 07 12 bf 22 9a 99 bf
       -1.3476974 0.26773664 -0.5704304 -1.2000163
000040 56 75 ed be e0 96 17 bf 86 ec 9a bf b8 87 b1 3e
       -0.46378583 -0.5921459 -1.2103431 0.34673858
000050 91 fb 5a bf c8 39 06 bf 19 27 13 bf ac 16 03 c0
       -0.8554011 -0.5243192 -0.57481533 -2.0482588
000060 4b e1 3d c0 86 3f da bf ab dd 33 3f 78 2e 31 bf
       -2.9668758 -1.7050636 0.70260113 -0.6921153
000070 01 48 eb 3e 5e c8 2a 3f d6 61 f2 3e 30 a2 2b bf
       0.45953372 0.66711986 0.47340268 -0.67044353
000080 9d 32 7c bf 13 ec 29 3f 99 6b 59 be 05 5b 17 bf
       -0.9851473 0.66375846 -0.21232451 -0.5912326
000090 15 ee d2 be c2 51 dd be ae 22 4c bf e8 41 1d bf
       -0.41197267 -0.4322644 -0.79740417 -0.6142869
0000a0 ab 3e 9a 3f 1e e4 85 3e 6f 07 37 3f 29 c1 bb be
       1.2050375 0.26150602 0.7149572 -0.36670807
0000b0 64 67 96 bf 65 1b 66 bf e8 ad 0d c0 8f 94 34 bf
       -1.1750302 -0.8988555 -2.2137394 -0.7053918

bn3.running_var f4 [48]
000000 bc 62 cc 3f a5 26 5b 40 bb 5f bb 3f c0 0d c5 3f
       1.5967631 3.4242337 1.463859 1.5394821
000010 5d 08 bd 3f 95 c9 1e 40 f4 b0 08 40 9b 4a 4c 40
       1.4768177 2.4810536 2.1358004 3.1920536
000020 a4 84 af 3f 10 97 05 40 e0 b6 6f 40 9f 3c 77 40
       1.3712354 2.0873451 3.7455368 3.863075
000030 78 f3 1a 40 72 fa e3 3f 5c e4 d3 3f e0 ad 9a 40
       2.4211102 1.7810805 1.6554065 4.833725
000040 86 bf d0 3f 26 eb 3b 40 4a 0d 4d 40 f6 4e b6 3f
       1.6308448 2.9362273 3.203936 1.4242847
000050 f9 21 fe 3f 93 86 f7 3f f3 56 90 3f 2c e8 75 40
       1.9854118 1.9337944 1.1276535 3.8422956
000060 03 67 8f 40 a8 d9 36 40 87 ee 9f 3f 95 0a c0 3f
       4.4813247 2.8570347 1.2494668 1.5003229
000070 f3 fb c4 3f 8b 61 c7 3f 04 09 a4 3f 1e 4c 09 40
       1.5389389 1.5576643 1.2815251 2.1452708
000080 75 ef de 3f 33 92 85 3f d5 c0 db 3f 0a 25 90 3f
       1.7416826 1.0435241 1.7168223 1.1261303
000090 e2 32 b6 3f 72 aa f2 3f 99 c7 de 3f 94 0e a4 3f
       1.4234278 1.8958266 1.7404662 1.2816949
0000a0 c4 2f 94 3f 53 72 be 3f 38 d6 84 3f c9 89 91 3f
       1.1577077 1.4878639 1.0377874 1.1370174
0000b0 6b 0b 74 40 7d c4 a5 3f 8b cd 5f 40 75 8b 7b 3f
       3.813197 1.2950588 3.4969203 0.9825967

conv4.weight f4 [64, 48, 3, 3]
000000 96 e9 80 3d f2 0c 30 3d a6 d9 1f bd 26 a7 21 3c
       0.06294553 0.042981096 -0.039025925 0.009866511
000010 2f 24 0a 3a 34 7f a7 bd 9a 90 08 3d 7e b3 23 3d
       0.0005269674 -0.08178559 0.033341028 0.0399661
000020 d8 ed 82 bc 27 b0 65 3d 19 02 9d 3d 63 18 e1 3d
       -0.015982553 0.056076195 0.07666416 0.109909795
000030 1c 56 f2 bd fd ca 02 be b8 5d 82 bd b0 0e cc bd
       -0.1183283 -0.12772746 -0.06365532 -0.09963739
000040 8b 83 bf bd ac 1e af bc e5 70 c8 3c 1c be 7d bc
       -0.09351262 -0.02137693 0.024467895 -0.01548722
000050 2c 43 a6 bd ec d0 82 3d de 73 10 3d 92 d5 0b 3d
       -0.08118281 0.06387505 0.03526675 0.034139223
000060 ab d2 ff bc 60 44 1c bd a5 13 68 bc fd 50 35 3d
       -0.031228384 -0.038151145 -0.01416484 0.04426669
000070 6a 13 21 3d 2a 36 b5 3d 01 1d a1 3d de ae 8a 3d
       0.039325155 0.088482216 0.0786686 0.067716345
000080 e3 d8 bf 3d 38 da 98 bc 41 2d 35 bc 85 d7 18 bd
       0.0936754 -0.018658742 -0.011058153 -0.03731491
000090 ab 6e 21 be e8 7c 0c be d6 bf dd bd 7d e0 30 be
       -0.15764873 -0.13719523 -0.108276054 -0.17273135
0000a0 33 0a d6 bd 28 18 d0 bd f3 b5 b2 bd 55 e8 e0 bc
       -0.10451164 -0.101608574 -0.0872611 -0.027454535
0000b0 52 b1 98 bd 8e 07 3a be dc 1f e3 bd 8e 16 26 bc
       -0.07455696 -0.18166944 -0.11090061 -0.010137213
0000c0 8a 85 f2 bd 81 28 e3 bc ed 8d 57 3d ec eb d6 3d
       -0.11841877 -0.027729275 0.052625585 0.10494217
0000d0 00 d4 34 3e 9c 9e 75 3e 41 96 b6 bd 3c ee b0 bd
       0.17658997 0.23986286 -0.089153774 -0.086391896
0000e0 30 c1 00 be 0c 82 20 be b7 44 aa bd 1e 5d 8e bd
       -0.12573695 -0.15674609 -0.083138876 -0.069513544
0000f0 56 4b 48 be 51 61 a0 bd e9 47 36 b9 e9 6f 0d be
       -0.19559988 -0.07831062 -0.00017383661 -0.13812222
000100 8b ae 97 bd 39 7b 38 3d 05 a4 4f be 99 5a c2 bd
       -0.07406338 0.04503939 -0.20277412 -0.094899364
000110 de 49 af bb 86 2b 00 be 38 7d 74 bd f2 58 23 3d
       -0.005349382 -0.12516603 -0.05968973 0.039879747
000120 4c 10 0b 3e 0f 18 a6 3d bd 8a 2c bb 4e 4a a9 3d
       0.13580436 0.081100576 -0.0026327812 0.082661256
000130 50 f4 4a 3d 91 b3 e4 bc f0 c9 31 3d ae f8 b7 3c
       0.0495494 -0.027917655 0.043405473 0.022457447
000140 6e 9f 86 bc c7 54 99 bd a2 6e 95 bd 53 73 c3 3a
       -0.016433444 -0.07486873 -0.07296492 0.0014911689
000150 86 b8 50 3d 92 69 ec ba 25 f6 05 bd dd ce 13 3e
       0.050957225 -0.0018036833 -0.032705445 0.14434381
000160 3b 01 ce 3d 90 41 5a 3d 17 7e 49 be e6 89 53 be
       0.100588284 0.05328518 -0.19677006 -0.20658073
000170 0d 85 36 be ad 59 20 be 30 93 0d be 3c 24 d6 bd
       -0.17824192 -0.15659209 -0.13825679 -0.1045613
000180 83 64 4e bd 0a bf 30 bd 8e b4 0b 3c 6b 17 60 bd
       -0.050388824 -0.04315094 0.008526934 -0.054709833
000190 04 f8 60 bd 85 0a a6 bd 85 b7 4d bd b9 1c 17 bd
       -0.054924026 -0.08107475 -0.050223846 -0.036892626
0001a0 c7 01 81 bd b5 1a c4 bc bd 15 8f bd 0f 49 07 bd
       -0.06299167 -0.023938516 -0.06986568 -0.03302866
0001b0 37 b0 88 3e b4 14 b9 3d 84 64 54 3e ee 09 41 3e
       0.2669694 0.09037152 0.20741469 0.18851444
0001c0 6e 42 4a 3d 21 56 8a 3d 9b 87 ba 3d 05 b0 59 bd
       0.04937976 0.06754709 0.09107896 -0.05314638
0001d0 bc 39 a0 bb 95 4b 9d bc 46 38 ca bd 30 7a 65 bd
       -0.004889695 -0.01920108 -0.098740146 -0.05602473
0001e0 f9 20 e6 3d 16 6f 22 3c 30 5c 1b 3b 00 40 3d 3e
       0.11236758 0.00991418 0.002370607 0.18481445
0001f0 42 f9 fa 3c 78 5f c8 3b 72 30 5e bd 8c 11 d2 bd
       0.030636434 0.0061148964 -0.05424542 -0.10257253
000200 65 f4 06 bd e4 1b 89 bc 3d 7e 2d 3b b8 73 58 3d
       -0.032947917 -0.016736932 0.002647295 0.052844733
000210 73 10 a7 3d d1 a3 ba 3d be 13 22 3e 68 2e fc 3d
       0.08157434 0.09113277 0.15827844 0.12313539
000220 af e8 f9 3d 93 9d c6 3d f9 d5 a4 3d fd 00 fa 3c
       0.12202584 0.09698024 0.080486245 0.03051805
000230 5f 75 29 3d 0f d3 bb 3d 37 88 22 3d 58 a8 3f bc
       0.0413717 0.091711156 0.039680686 -0.011697851
000240 27 30 26 3c 99 11 87 bc 87 b1 0c 3c 8b 60 a1 bd
       0.010143316 -0.016487883 0.008587248 -0.07879742
000250 fb b4 8c bd 5d fd 2b 38 c7 75 20 be 8e e0 10 be
       -0.06870457 4.100554e-05 -0.15669928 -0.14148161
000260 e7 26 63 bd 2f 8d 2c 3d 79 f1 b3 3d 93 32 10 3c
       -0.055457022 0.04212683 0.08786292 0.00880112
000270 49 46 75 bd 21 fd 03 3d ca 94 98 3c 2d 34 13 be
       -0.059881482 0.032223824 0.018625636 -0.14375372
000280 9b 95 00 be a0 f1 8a bd f4 f9 40 be c2 43 34 be
       -0.1255707 -0.067843676 -0.1884535 -0.17603973
000290 4d 79 8f be 3e 71 2c be 98 d1 d6 bd 0b dc 06 be
       -0.28022233 -0.16840073 -0.104891956 -0.13169877
0002a0 79 45 48 be 56 6b 6d bd 79 f7 99 3c 0d 3e a2 3b
       -0.19557752 -0.05796369 0.018794762 0.0049512447
0002b0 b2 e3 2e bc 42 20 61 bc 0a 2e be 3c 33 1f 46 3d
       -0.010674404 -0.013740601 0.023215313 0.048369598
0002c0 86 1f af bc d8 fa ce 3b 57 c6 69 3c e9 b7 8c bd
       -0.021377336 0.006316524 0.014268479 -0.068710156
0002d0 6c 2d 85 3d cc ce 94 3d 2e 70 61 3d b8 53 c3 bc
       0.06502804 0.07266006 0.055038624 -0.023843631
0002e0 46 f2 77 bd d5 82 a9 bd 94 d6 f5 3d 44 ee 81 3d
       -0.060533784 -0.08276907 0.12003818 0.06344274
0002f0 b5 eb b4 3c 3a d6 df bb 93 9a 30 bd a7 42 0c be
       0.02208505 -0.0068309577 -0.043116163 -0.13697301
000300 6d b0 3d bb f2 b8 8b bc e0 cc cb bd bd 1c b6 bd
       -0.002894427 -0.017055962 -0.09951186 -0.088922
000310 cb f5 09 bd 07 e4 61 bd c8 aa c8 bd 53 66 01 3d
       -0.033681672 -0.055149104 -0.09798199 0.031591725
000320 4f eb ef 3d 8a ac e6 bd a9 77 a4 bc 65 30 6e 3d
       0.117148034 -0.11263378 -0.02007659 0.05815162
000330 a3 5e 66 bd a6 a4 26 bd 68 11 c0 ba 8b 87 4e bd
       -0.056242596 -0.040684365 -0.0014653625 -0.050422233
000340 d7 e7 f5 bc 55 eb d1 bd f3 43 02 be 63 45 ce bd
       -0.030017776 -0.10249964 -0.12721233 -0.10071828
000350 23 ab 27 be ce 8a 9b be f4 13 98 be b5 59 a2 be
       -0.16373877 -0.30379337 -0.29702723 -0.31709066
000360 b5 9d 16 3d ea 4f fc bb 72 aa ef bc d0 0e 9f 3c
       0.036771495 -0.007699956 -0.02925608 0.019416243
000370 0d 57 25 bc 2e 0f 27 bd 1e 52 34 3c bf 21 d0 bc
       -0.010091555 -0.04078596 0.011005906 -0.025406716
000380 ef 58 ae bd 02 ec 8a 3c f7 c4 b6 3c 70 70 b5 bc
       -0.085130565 0.01695824 0.022310717 -0.022148341
000390 87 b9 df 3c 0e 60 0b 3d 07 d1 74 3c 81 7b d3 bd
       0.027310146 0.03402715 0.014942414 -0.10326291
0003a0 49 ca 02 be 83 06 e1 bd 89 1f 19 3d 1e 6f 85 bc
       -0.12772478 -0.1098757 0.03738359 -0.016288336
0003b0 b7 1e ec bc f1 e5 17 bd f2 9d 19 bd 6b 15 26 be
       -0.02882324 -0.037084524 -0.037504144 -0.16219108
0003c0 ac 8c f2 bd c3 c7 e4 bd ca 1d 23 be e3 c5 cd bd
       -0.11843237 -0.11170914 -0.15929332 -0.100475095
0003d0 e9 b7 08 be 8a 01 bf bd 0a dd cb 3b 5a 57 db 3c
       -0.13351406 -0.093264654 0.0062214183 0.02677505
0003e0 9b ac 78 3c 6d a0 0f 3d 54 78 93 3c c3 77 19 3d
       0.015177871 0.035065103 0.018001713 0.03746773
0003f0 53 73 c6 3c 98 ed 9d bc 16 8a 0b 3c 1a 51 9f 3c
       0.024224913 -0.019278333 0.008516809 0.019447852

bn4.weight f4 [64]
000000 f2 20 88 3f ec b1 84 3f 60 e8 9a 3f 17 38 9a 3f
       1.0635054 1.0366797 1.2102165 1.2048367
000010 8a a4 ad 3f dc 7d 95 3f aa 09 93 3f 6a fd a0 3f
       1.3565838 1.1679034 1.1487324 1.2577336
000020 d3 e6 af 3f f3 6b 8f 3f 77 03 8b 3f 39 8c 8a 3f
       1.3742317 1.1204818 1.0860432 1.0824043
000030 d1 1c 17 40 7a c4 a3 3f 10 78 78 3f 70 37 99 3f
       2.3611338 1.2794335 0.970582 1.1970043
000040 2b c5 22 40 6b fc 8f 3f 21 29 6f 3f 0c 9c 9b 3f
       2.5432842 1.1248907 0.9342213 1.2156997
000050 64 df c9 3f 2c 9e a5 3f de 04 91 3f 96 f4 8e 3f
       1.5771298 1.2938895 1.132961 1.1168392
000060 9a 56 ab 3f 2a 69 7b 3f 1f b2 a9 3f d5 40 9a 3f
       1.3385804 0.9820734 1.3257483 1.2051035
000070 85 62 b4 3f 2a 07 0d 40 4d a6 6f 3f 30 44 81 3f
       1.4092566 2.2035623 0.9361313 1.0098934
000080 9e e1 a1 3f 73 ee a5 3f f5 b0 c3 3f 34 3a 90 3f
       1.2646978 1.2963394 1.5288378 1.1267762
000090 88 4a 84 3f 17 ce a8 3f f5 d1 98 3f 4c 7d b5 3f
       1.0335245 1.3187894 1.1939074 1.4178863
0000a0 e6 1b a2 3f 6f 21 a3 3f 91 47 8f 3f 15 76 8f 3f
       1.2664764 1.2744578 1.1193715 1.1207911
0000b0 9d a4 01 40 55 a3 a4 3f 8e 15 87 3f 3b f4 bb 3f
       2.0256722 1.2862345 1.0553453 1.4683908
0000c0 5c 5a a6 3f fa f8 84 3f aa ba 87 3f 47 d6 97 3f
       1.2996325 1.0388482 1.060384 1.1862267
0000d0 af e7 a9 3f 54 63 f1 3f 1b 10 e9 3f d1 09 8c 3f
       1.3273829 1.8858438 1.820804 1.0940496
0000e0 38 bd eb 3f f3 b6 6c 3f d7 c9 bd 3f a6 9c a5 3f
       1.841712 0.9246666 1.4827222 1.293843
0000f0 05 28 89 3f 31 79 9b 3f 62 b3 b6 3f d4 8e 8d 3f
       1.0715338 1.214636 1.4273493 1.1059213

bn4.bias f4 [64]
000000 e8 f5 a8 be 92 d2 03 bf 94 c8 e7 be 78 72 f5 be
       -0.33000112 -0.5149318 -0.45270216 -0.47938895
000010 5d 11 b1 be 58 bd f3 be b0 47 0b bf 4d 33 e0 be
       -0.3458356 -0.47605395 -0.5440626 -0.4378914
000020 2f be 0e be 6a 3a a7 be 33 ca 3a be 99 2d f4 be
       -0.13939737 -0.32661754 -0.18241195 -0.47691038
000030 c7 5e 8e 3e 79 2a 11 bf ce cd ee be 07 ee 86 be
       0.27806684 -0.56705433 -0.46641392 -0.26353475
000040 8a fa e7 3e 3f c3 96 be 8e 50 af be 0f c7 1e bf
       0.45308334 -0.29445836 -0.34241146 -0.6202249
000050 f8 37 46 be c4 64 cd be 7e c1 20 be 19 76 7c be
       -0.19357288 -0.4011594 -0.15698811 -0.24654426
000060 5c 53 a3 be a6 85 03 bf 80 e4 e2 bd a7 2e de be
       -0.31899536 -0.51375806 -0.11078739 -0.43394968
000070 4a 47 c1 be 18 2d 3d 3e a0 76 b6 be b0 79 03 bf
       -0.37749702 0.18474233 -0.3563738 -0.51357555
000080 b7 55 01 bf f5 2d f4 be 7f 73 31 bf 1a 8e 03 bf
       -0.50521415 -0.47691312 -0.6931686 -0.51388705
000090 8c 08 db be c5 f3 03 bf fa 54 a2 be b7 1e d4 bd
       -0.42779958 -0.5154384 -0.31705457 -0.10357421
0000a0 70 44 1e bf 83 a3 c7 be 0b ab 66 be d3 59 e0 be
       -0.6182318 -0.38991937 -0.22526185 -0.4381853
0000b0 bd dd 93 be f7 3b 1d bf 93 5c 86 be 60 e0 5c 3d
       -0.2888011 -0.61419624 -0.26242504 0.05392492
0000c0 7f 02 e6 be 8c 8f aa be 3c 3e e2 be 67 49 fd be
       -0.4492378 -0.33312643 -0.44188106 -0.49470064
0000d0 2e df 45 bf 90 b2 30 bc dc 09 83 be 18 d7 a6 be
       -0.7729367 -0.01078476 -0.2559346 -0.32585979
0000e0 12 86 b5 bd 1c ea cb be 79 82 dc be 11 04 bf be
       -0.088634625 -0.3982705 -0.43068293 -0.3730779
0000f0 52 d1 17 bf b7 41 a9 be 16 5d b2 be 77 c7 d9 be
       -0.5930377 -0.3305795 -0.34836644 -0.42534992

bn4.running_mean f4 [64]
000000 db 8c 62 bf 82 a3 40 be 2c a8 1e 3f 3e 11 ba 3e
       -0.8849618 -0.18812373 0.6197536 0.3634128
000010 e2 4f 22 3f b2 60 ee bd 89 b5 7e bd 9d 29 15 3f
       0.6340314 -0.11639537 -0.062184844 0.5826662
000020 f8 d9 41 3d f6 0a e1 3d 99 17 15 bf b1 b8 39 3f
       0.04732701 0.10988419 -0.5823913 0.7254744
000030 76 71 39 40 7b 65 24 be d9 97 66 bc f1 48 8d 3f
       2.89755 -0.16054337 -0.014074289 1.1037885
000040 ae e8 03 3f 08 5d a6 bf d7 c6 c1 be 1a f6 0e bf
       0.51526916 -1.2997141 -0.37847015 -0.5584427
000050 56 88 6a 3f 18 35 6c 3f 90 15 49 be da 30 8d bf
       0.9161428 0.92268515 -0.19637132 -1.1030533
000060 13 90 f5 3f eb 05 1a be a4 85 55 3d f7 97 49 3f
       1.9184593 -0.1504132 0.052129403 0.78747505
000070 00 24 ae 3f ff 37 1c 40 a4 4c 4f bf af 2c dc 3d
       1.3604736 2.4409177 -0.8097632 0.1075071
000080 e2 67 4b 3f 4b c2 1e 3f 28 f3 5d 3f 15 8c 74 be
       0.7945539 0.6201522 0.8669915 -0.23881562
000090 01 84 b4 be d4 0d c9 3e 87 00 37 be a5 f1 e7 3f
       -0.3525696 0.39268363 -0.17871295 1.8120619
0000a0 d1 5b 82 3f 1f db d8 be 48 51 ce 3e 47 fc 9d 3d
       1.018427 -0.42354676 0.40296388 0.07714134
0000b0 c0 34 2e 3f 4f 25 d8 3d 3f c9 97 3e d6 3f 3f 3f
       0.6804924 0.10553991 0.29645726 0.7470678
0000c0 de 1a 7d 3f eb 6c 24 bd 5a 3a dc be 1c 69 c0 3e
       0.9886912 -0.040142935 -0.4301327 0.37580192
0000d0 69 95 5d bf 19 bf 93 bf a0 4e 6a 3f 74 df ec 3c
       -0.86556107 -1.1542693 0.9152622 0.028915145
0000e0 c7 01 a9 3e 77 25 c7 3e eb f5 99 3f 50 69 42 3f
       0.33009169 0.3889577 1.2028173 0.75941944
0000f0 d1 58 96 3e 41 fb 05 bf d7 20 90 3f f2 a5 1e bf
       0.29364637 -0.5233651 1.1260022 -0.6197196

bn4.running_var f4 [64]
000000 bb 02 08 3f 1d 9c 07 3f d9 7e 31 3f cd 2c 0e 3f
       0.53129166 0.52972585 0.6933418 0.5553711
000010 24 f7 31 3f 29 95 1e 3f 94 db c5 3e 73 00 18 3f
       0.6951773 0.6194635 0.38644087 0.59375685
000020 ab 70 08 3f 06 9c 07 3f eb 78 0b 3f 7f 4c 17 3f
       0.5329692 0.5297245 0.5448138 0.591011
000030 dd bd 80 3f 6e fe 29 3f 42 5d 03 3f a4 65 0b 3f
       1.0057942 0.66403854 0.51314175 0.54451966
000040 dc 69 53 3f 81 f8 30 3f 26 da 1c 3f f3 a8 06 3f
       0.82583404 0.69129187 0.6127037 0.52601546
000050 bb 1f 7a 3f e8 7b 0b 3f 83 d9 0b 3f bc 5f 46 3f
       0.97704667 0.5448594 0.5462877 0.7748983
000060 7e b5 64 3f 0b 39 ce 3e 04 a1 08 3f c2 3e 11 3f
       0.89339435 0.40277895 0.5337069 0.56736386
000070 60 5f e8 3e 9d 07 62 3f 39 29 dc 3e 05 df e5 3e
       0.45385265 0.88292867 0.430002 0.44896713
000080 e8 ea 0f 3f 75 04 24 3f c8 54 ed 3e df 5a 07 3f
       0.56217813 0.640693 0.46353745 0.52873033
000090 e8 3b 0c 3f 93 df 29 3f ca a6 fe 3e 1a 3a 4f 3f
       0.5477891 0.6635677 0.49736625 0.8094803
0000a0 49 cf ef 3e ee be 23 3f 39 27 09 3f 69 3d 06 3f
       0.46837834 0.6396321 0.53575474 0.52437454
0000b0 74 dc 4b 3f 79 86 04 3f db ba cd 3e b6 01 80 3f
       0.7963326 0.5176769 0.40181622 1.0000522
0000c0 a3 f6 df 3e 4e 56 34 3f 3f 4a 00 3f 16 7a 1b 3f
       0.43742856 0.7044419 0.5011329 0.60733163
0000d0 a5 7c 19 3f 0c cc 4d 3f 24 2a 32 3f 09 d3 13 3f
       0.5995582 0.80389476 0.6959555 0.5774389
0000e0 4b be 1e 3f 71 9f fe 3e 7c 73 3b 3f 1b 3d 2d 3f
       0.62009114 0.4973102 0.7322309 0.67671365
0000f0 73 33 fb 3e 8d 40 fa 3e e5 df 1f 3f 4f 38 51 3f
       0.4906269 0.48877373 0.6245101 0.81726545
